…
      jackhammer      1.000     1.000     1.000         6
           siren      1.000     1.000     1.000         1
    street music      0.800     0.800     0.800         5

        accuracy                          0.909        33
       macro avg      0.913     0.930     0.910        33
    weighted avg      0.924     0.909     0.911        33

Modelarchitecture:
Model: "sequential_21"
_________________________________________________________________
Layer (type)                 Output Shape              Param #   
=================================================================
dense_39 (Dense)             (None, 512)               20992     
_________________________________________________________________
dropout_30 (Dropout)         (None, 512)               0         
_________________________________________________________________
dense_40 (Dense)             (None, 256)               131328    
_________________________________________________________________
dropout_31 (Dropout)         (None, 256)               0         
_________________________________________________________________
dense_41 (Dense)             (None, 10)                2570      
=================================================================
Total params: 154,890
Trainable params: 154,890
Non-trainable params: 0
_________________________________________________________________
