…
      jackhammer      0.857     1.000     0.923         6
           siren      1.000     1.000     1.000         1
    street music      1.000     0.800     0.889         5

        accuracy                          0.939        33
       macro avg      0.971     0.930     0.940        33
    weighted avg      0.948     0.939     0.935        33

Modelarchitecture:
Model: "sequential_5"
_________________________________________________________________
Layer (type)                 Output Shape              Param #   
=================================================================
conv1d_5 (Conv1D)            (None, 38, 1)             4         
_________________________________________________________________
leaky_re_lu_4 (LeakyReLU)    (None, 38, 1)             0         
_________________________________________________________________
batch_normalization_4 (Batch (None, 38, 1)             4         
_________________________________________________________________
flatten_4 (Flatten)          (None, 38)                0         
_________________________________________________________________
dropout_4 (Dropout)          (None, 38)                0         
_________________________________________________________________
dense_6 (Dense)              (None, 128)               4992      
_________________________________________________________________
dense_7 (Dense)              (None, 10)                1290      
=================================================================
Total params: 6,290
Trainable params: 6,288
Non-trainable params: 2
_________________________________________________________________
